model/CNN.pth (torch, 512783 bytes, 12 tensors)

covn1.0.weight f4 [8, 1, 5, 5]
00000000: 99e3 313d 976d b8bd 6ee7 21be 2c6c b5ba
00000010: 5806 c5bc fea7 263d c783 3dbd 37e7 883d
00000020: 2275 613d 9cb6 133e d022 27be 9221 c6bd
00000030: 5238 7fbc a04a 8abd 3ec2 debd 59c9 5fbe
00000040: 47eb 94bc 42c6 93bd 9587 713c 7437 a8bd
00000050: 23ef 4fbe a1ee 85be 9eea 25be 6896 cc3d
00000060: 1a60 703d 28da d03d 9ab5 48be 92d2 0f3d
00000070: 6bc6 82bc 1635 9a3d 33ae 623d 15d3 eabd
00000080: a720 fb3d c5a0 6bbe 34af 3b3e 646a 99bc
00000090: 3eef ff3c 5c23 dc3c f3dc 75bd 51b0 363d
000000a0: e3ce 34bd 8f3d 4e3c affe 6bbd d9d5 123e
000000b0: 9d7f 61bd dc74 bf3b c95c e73d c0dc 2bbd
000000c0: cfac 42be 808a 493d e4d6 7c3d 9257 c1bd
000000d0: 319a c93d bc76 95bd ce62 e0bb 19a9 173d
000000e0: d663 643c ead9 c03d fd30 0dbd 0f6f 9abd
000000f0: 1bad 323e ff66 093e f51f 6a3d b68f 193e
00000100: 8d58 ff3d d793 09be 9012 393d e529 593d
00000110: 1253 4abd fdba 733d bc9d bdbd bfa2 aebd
00000120: 92eb 0e3d 9a63 97be bb92 6b3e 92b0 923c
00000130: aa55 123e d1bb 2b3e da67 123d 690e f83d
00000140: 2390 8cbc bcab 4dbd 67fa 873c 076b ebbd
00000150: 94c1 45bd 88de 18bd 8690 10bd dbd3 753c
00000160: 1f82 ffbd ad99 12be 30d7 803c 02a3 d23d
00000170: b688 d73d b132 c13d b6c3 d3bd 4efa 163c
00000180: 4c00 60be f2a4 3c3e ead1 4bbe 2209 e53c
00000190: 88fa 603d 7e45 753d 405e bebc 0b7d 653d
000001a0: 2261 253e c3d2 44bd 63f7 d63d 8663 16be
000001b0: 6297 0d3d f3dd 813d a085 89bd 09a5 38bd
000001c0: fe43 723d a4e4 16be 2159 6f3d 5d59 0f3e
000001d0: 6617 c43c 6936 003e 83b8 063e d740 273d
000001e0: e994 ebbc 5542 953d fc7a b73d 3ea0 703d
000001f0: e20a 46bb bb06 203e e5d9 4bbd 24d6 0f3e
00000200: d5d6 233c f356 3f3e 02fa 14bb d62a 963c
00000210: 313e ae3d 8eb7 9e3d b4f1 ccbb 8780 1f3e
00000220: fb13 8b3d bf28 053d 08a9 653d cf44 69be
00000230: 80d2 b2bc f2a9 dd3d 3c3e 7e3d 68e9 513e
00000240: 9f58 86bc e607 34bc dacc 42be f19e 9e3d
00000250: 4b11 16bd cfe4 76bd e1dc 363d c467 c53d
00000260: 6c12 793d 530b c33c 4b9d a7bd 58cd b83c
00000270: 5720 1e3e f5d6 203c ba57 fc3d a508 04be
00000280: 6cd1 a63d e4e8 3c3e 3929 163d f1ce 21bd
00000290: d866 803e 6665 883d b6a0 8f3d 0f18 81bd
000002a0: 96bd 9ebc 35d5 f0bd 9a06 cb3d 657e c13d
000002b0: 09c9 a03d 496d 513d 150b 5abe 56da b43c
000002c0: 098e cabc c568 873d 658e 103e c893 e8bc
000002d0: 5888 d8bd cfa6 1f3e 2715 73bd b61f 9f3e
000002e0: d45a aa3c b2ac cfbd 8da4 5d3e 1029 8dbd
000002f0: 1e02 08be c023 17be 8d30 753c 5a55 cbbc
00000300: ab5b 8a3d c779 29be db42 0f3e 8fe0 91bd
00000310: 4e42 f63d 5dd9 aa3c 2654 953d d60b 66bd
0.043429945 -0.090052776 -0.1581094 -0.0013841442 -0.024050876 0.040687554 -0.04626825 0.06684726
0.055043347 0.14425129 -0.16321874 -0.09674372 -0.015577393 -0.06752515 -0.108768925 -0.21854152
-0.018178595 -0.07215549 0.014741798 -0.08213702 -0.20306067 -0.26158622 -0.1620278 0.09989625
0.0586854 0.1019786 -0.19600525 0.035112925 -0.015963754 0.075296566 0.05534191 -0.11466042
0.12262087 -0.23010547 0.18328553 -0.018727489 0.03124201 0.02687233 -0.060025167 0.044601742
-0.044142615 0.012587919 -0.057615932 0.14339389 -0.055053342 0.005842788 0.11296994 -0.04195857
-0.19011234 0.04920435 0.061728373 -0.09440531 0.09843863 -0.072980374 -0.006847716 0.0370265
0.013939818 0.09416564 -0.034470547 -0.07540714 0.17448847 0.13418196 0.057159383 0.14996228
0.124680616 -0.13435303 0.04518372 0.05301847 -0.04939563 0.059504498 -0.09258601 -0.08527135
0.034892626 -0.29568177 0.23005192 0.01790646 0.14290491 0.16770865 0.03574357 0.121121235
-0.017158573 -0.050212607 0.016598893 -0.11495023 -0.048280314 -0.037321597 -0.03529408 0.015004124
-0.124759905 -0.14316435 0.01572761 0.102849975 0.105241224 0.09433497 -0.10340063 0.009214951
-0.21875113 0.18422297 -0.19904295 0.027958456 0.054926425 0.059880726 -0.023238301 0.056027453
0.16150334 -0.04805256 0.10496404 -0.14686403 0.034568198 0.063411616 -0.0671494 -0.045079265
0.059146874 -0.14735657 0.05843461 0.13998933 0.023936938 0.12520756 0.13156323 0.04083332
-0.02875753 0.072880425 0.08959004 0.05874657 -0.003021889 0.15627567 -0.049768347 0.14046532
0.00999995 0.18685512 -0.0022732024 0.018330973 0.08507956 0.07749854 -0.006254399 0.15576373
0.0679092 0.03250956 0.056069404 -0.22780155 -0.02182889 0.1082343 0.06207107 0.20499194
-0.01639968 -0.010988211 -0.19023457 0.077451594 -0.036637586 -0.060276803 0.04464424 0.09638932
0.060808584 0.02380911 -0.08184298 0.022558853 0.15442024 0.009816875 0.1232142 -0.12893923
0.08145413 0.18448216 0.036660407 -0.039503995 0.25078464 0.06659965 0.07013075 -0.06303417
-0.019377511 -0.11759416 0.099133685 0.09447936 0.078508444 0.051129613 -0.2129329 0.022076767
-0.02472593 0.0661178 0.14116819 -0.02839078 -0.105728805 0.15590976 -0.059346344 0.3107888
0.020795263 -0.10140361 0.21644802 -0.06892598 -0.13282058 -0.14759731 0.014965189 -0.024820972
0.067557655 -0.1655036 0.13990347 -0.07122909 0.12024365 0.0208556 0.07291441 -0.05616363

covn1.0.bias f4 [8]
00000000: 2b87 84bc 923f 2cbd b85b dcbc 0572 edbc
00000010: d18a f03b e674 4c3b aaae ce3b 80ba 24bc
-0.016177734 -0.042052813 -0.026899204 -0.028985033 0.007340767 0.0031197607 0.0063074427 -0.010054231

conv2.0.weight f4 [16, 8, 3, 3]
00000000: f43d bb3c a3f3 703d 0d5f ed3d 0518 4ebd
00000010: af90 50be a5f6 a53d e002 20be 7ba9 7ebe
00000020: be6c a7be ab15 0e3e f183 75be 7ffb 19be
00000030: 7b6f 693e d165 f0bb cdae 3c3c c98f 8fbd
00000040: 3af6 a13d 98aa b13d fe92 0c3d 2de8 453e
00000050: 9b45 c1be 3a11 1abe 59c9 813d 352c 923c
00000060: 7b7f 02bd 359f 633e 3cb9 bbbd 1763 0dbe
00000070: 7111 063e 6794 1dbd fe97 863d 5f2f cabd
00000080: 7d3c cbbb 73b1 06be 930b 623d 3dc0 8e3d
00000090: b614 19be ce3a 1fbd f0a8 783d 226c 9f3d
000000a0: 4856 45bd d87e 7cbd 633e 51bd b874 443d
000000b0: 5be6 403e 2351 333e 69a3 1abd c13c b03d
000000c0: 644a a3bd 8924 083e 9926 6f3e 938f 87be
000000d0: bc0b ca3c 7799 263e 8eed d5bb 10da 85bd
000000e0: c707 89bc dd2f 6fbd 188d babc 99f4 023e
000000f0: 9be9 f3bc 72fc 05be e416 55bc e89f 4e3e
00000100: 7007 ce3c c1cd f7bd 9ab5 7e3e 847d 683e
00000110: 3ee0 ed3c 30f7 80be 2434 b13b 2235 bdbd
00000120: 2497 98bd 9b3f f3bd dc44 5dbc f6f7 c9bd
00000130: bea8 593a d9cd 9d3d bac2 713d 3e60 7a3c
00000140: 7f06 1cbe dfc6 5e3e 02dd 8c3d e4e4 4b3c
00000150: 3b15 8bbe e026 823b 5003 253d fbf5 69bd
00000160: b6a2 943c 6161 edbd d1fb 8a3d 8ef4 63bd
00000170: 045a cc3d 9803 66bc 03d1 bfbd 398b dc3b
00000180: f90f 923d feea d13c 3dda 723d 0dd3 9c3d
00000190: aed9 7cbe 70d4 f1bd 3cef 303e 9549 a1be
000001a0: a9dd 2cbe 1a08 40be 6275 15be 3f05 1cbe
000001b0: d317 8ebb 3c49 09be a426 cdbd 997d 0f3e
000001c0: f1df d23d b9cd 82bc 5ff9 493e 46c4 633d
000001d0: de32 c9bd 53da 86bd 8027 bdbc f527 3bbd
000001e0: 4fa4 60bd dff2 fbbd a07b 04be 088a 343e
000001f0: aa7c 323e 0fae 42bd 3d7f a0bc c703 e23d
00000200: 5156 efbc a006 ae3c e527 853d 81fe d5bd
00000210: f402 123e c7cc cfbc 5ce3 babc 52d4 20bd
00000220: bc53 a0bc c140 e0bc 85be 93be 0fa1 e7bd
00000230: 4562 2bbe e7d8 06be 19d3 4d3e a12f e2bd
00000240: 5ca9 f8bd df6e 513d 0030 8d3d a38e 9f3d
00000250: 5f9b 513e ddaf 463e d5e8 d63d 7ad6 f43d
00000260: be0f 013e 154d 8bbb 0966 c03b 0711 3b3d
00000270: ebad d5bd 2c75 9abb 6226 143d 255c c9bd
00000280: 5a9d c63d 191e a83d 2d10 d8bc 0493 89bc
00000290: bfca ff3d 2272 063e 5198 24be 9a89 5a3e
000002a0: f6c3 1bbe b196 0b3d e8fd 4abd 8969 b73d
000002b0: 6cc3 cf3d 3282 48be 4da6 c8bd 0f8d 013e
000002c0: aaa3 6ebc 76d7 d6bd 568d 8b3d bdb5 013d
000002d0: 2322 3f3d 171c 153d 4e45 0b3e efc2 363e
000002e0: 6cf9 a8bd 0fb7 503d ceef bebd e082 833d
000002f0: 8ea0 17be 69e3 03be c5a6 f7bd 39d8 6cbd
00000300: b950 8cbd d020 633c 314e 38bd 8303 0a3e
00000310: 580d 8bbd 75a8 673e 6ad2 d13d 71ab 983d
00000320: 450b 7fbd e49c de3d f6ac d93c a5fa 5abd
00000330: bbb7 8fba a82f a43c ae6d d4bd 587c e8bd
00000340: b01a 823d 4056 93bd 206c 26be cd29 683e
00000350: 8a21 04bd f3c7 33bc d403 b93d 2c34 a9bc
00000360: eda6 c63d 0d6e 30bc ecd5 c3bd bb09 c3bd
00000370: 988b a8bd 220f 20be ad8e fabb d841 65be
00000380: 8136 97bd 266b c83d 9dba 043d 7325 10be
00000390: 6f3a aabd 6182 61bd 8a4c 79bc 49db ba3d
000003a0: 1d8c 123e 9c31 873a df03 cabb d965 4fbd
000003b0: 3b09 12be 19b2 4dbe 6b4d cf3d bc7e a43d
000003c0: 5cf0 d73d c1cc c4bc c4b8 06bd 67a0 b1bb
000003d0: 2c7b 203d 62b3 a33d 39b0 6bbd 355f 5bbc
000003e0: 2ade 93bb b84d 6bbe 8b39 0a3e 1633 7bbe
000003f0: 3921 79bc fbd2 58ba da24 853d e4f6 b33b
0.02285669 0.0588261 0.11590395 -0.050315876 -0.20367692 0.08103684 -0.15626097 -0.24869339
-0.3270015 0.13875453 -0.23976113 -0.15037344 0.22796433 -0.007336356 0.011516285 -0.07009847
0.07908292 0.08675116 0.03431987 0.1932685 -0.37748417 -0.15045634 0.06337232 0.017843345
-0.031859856 0.22228701 -0.0916619 -0.13807331 0.13092591 -0.038471606 0.06571959 -0.098723166
-0.006202279 -0.13153629 0.05518682 0.0697026 -0.14949307 -0.03887444 0.060707986 0.077842966
-0.048177987 -0.061644405 -0.051084887 0.047962874 0.18837874 0.1751142 -0.037753496 0.08605338
-0.07973173 0.13295187 0.23354568 -0.26476726 0.024663799 0.1626948 -0.006528563 -0.06535733
-0.016727341 -0.058395255 -0.022772357 0.12788619 -0.029774478 -0.13084581 -0.013005946 0.20178187
0.02515003 -0.12099791 0.24873963 0.2270413 0.029037591 -0.2518859 0.005407827 -0.0923865
-0.07450703 -0.11877366 -0.013505187 -0.09861748 0.00083030376 0.07705278 0.059023596 0.015281735
-0.15236853 0.21755551 0.068780914 0.0124447085 -0.27164635 0.0039719194 0.040286362 -0.05711935
0.018143993 -0.11590839 0.067863114 -0.055653147 0.099781066 -0.014038943 -0.09366038 0.006730464
0.07131953 0.025624748 0.05929016 0.07657442 -0.24692413 -0.11808097 0.1727876 -0.3150145
-0.16881432 -0.1875309 -0.14595559 -0.15236376 -0.004336336 -0.13406843 -0.10017136 0.14012755
0.1029662 -0.015967237 0.19724034 0.055607103 -0.09824155 -0.06584611 -0.023090124 -0.045692403
-0.054844197 -0.12302183 -0.12937784 0.1763078 0.17430368 -0.047529276 -0.019591922 0.11035877
-0.029215964 0.021243393 0.0650175 -0.104489334 0.14258939 -0.0253662 -0.022813492 -0.039264984
-0.019571178 -0.027374627 -0.28856292 -0.11310016 -0.16736706 -0.13168679 0.20100059 -0.11044241
-0.12141678 0.051131126 0.06893921 0.07790878 0.20469426 0.19403024 0.10493628 0.11954971
0.12603661 -0.0042511323 0.0058715385 0.045670535 -0.10433563 -0.004713675 0.036169417 -0.09832028
0.09697981 0.08208866 -0.0263749 -0.016793735 0.124898426 0.13129476 -0.16073729 0.21341553
-0.15211472 0.034079257 -0.04955855 0.08955676 0.10144696 -0.19580916 -0.09797344 0.12651466
-0.014565388 -0.10490315 0.06814067 0.03166746 0.046663415 0.03640374 0.13600656 0.17847799
-0.082506984 0.05095583 -0.09323083 0.06421447 -0.1480734 -0.12879719 -0.12092356 -0.057823393
-0.06851334 0.013862804 -0.044996444 0.13477902 -0.067896545 0.22622855 0.102452114 0.07454575
-0.062266607 0.10869768 0.026571732 -0.05346169 -0.001096479 0.020042256 -0.10372482 -0.11351842
0.063527465 -0.07194185 -0.16252184 0.22672196 -0.032258548 -0.010972965 0.09033933 -0.02065476
0.09699807 -0.010768426 -0.09562287 -0.0952334 -0.082297504 -0.15630773 -0.007646403 -0.22388399
-0.07383443 0.09786062 0.03240453 -0.14076786 -0.083119266 -0.05505598 -0.015216002 0.091238566
0.14311261 0.0010314467 -0.0061650123 -0.05063424 -0.14261334 -0.2008747 0.10122188 0.08031985
0.10543892 -0.024023416 -0.03289105 -0.005420733 0.039179966 0.07993199 -0.057541106 -0.013389398
-0.004512568 -0.22978866 0.13498513 -0.24531206 -0.015205675 -0.00082711846 0.065011695 0.005492078

conv2.0.bias f4 [16]
00000000: 05da 583c cf1b 773c 825f 94bc 40b3 c23c
00000010: 4f63 043c 9549 2b3c 597c 82bc e502 7abc
00000020: 7e88 adbc 80d0 1ebb d480 06bd 54d0 52bc
00000030: 8711 02bd b905 683a f426 c93a 084e c83c
0.013235574 0.015082314 -0.018111948 0.023767114 0.008080318 0.010454555 -0.015928434 -0.015259479
-0.021183249 -0.0024233162 -0.032837704 -0.012867052 -0.031754997 0.00088509504 0.0015346692 0.02445127

conv3.0.weight f4 [32, 16, 3, 3]
00000000: b0ce 033d b4ea 803d 6d19 633e 1462 b43d
00000010: 02ba 7dbc caa8 2abc 3ad6 613e 92f4 373c
00000020: 64ea c9bd eee8 fdbc 3e93 c0bd 5c12 4dbc
00000030: b98c 4b3c 1c33 35bd 0405 b0bd 7f6f 0bbe
00000040: d8e6 f4bd a805 96bd 8d0e 81bd 73eb 27be
00000050: 6105 dfbd 7db0 c2bd 1818 573b 86e5 8abd
00000060: 42b1 5e3d 49f2 de3c 01f5 8ebd 6416 17bd
00000070: 72d6 bc3d 920c 3b3d 3638 55bd 4f60 44bd
00000080: e9b2 413e 9b09 11be 39da 1bbd 6bed c5bd
00000090: 7139 0abc 9cea 55bc df68 11bd 2c73 ba3c
000000a0: 5b92 a93c 60c9 e63d e8d3 18bd 0704 8bb9
000000b0: 91dd 97bd 3e1a af3d 3524 f6bd f1c1 2ebd
000000c0: 71bd 91bd 45cd eabd 73fd d1bd 2874 183d
000000d0: e696 603d 1992 ba3c 1241 1e3c ef00 4abd
000000e0: b10f c8bd e43f e93d 63b2 fc3c ae7e 35bd
000000f0: eded a0bd 59f7 58be 7162 8dbd 5fef c8bd
00000100: b4e4 50bd 872d bebd 5d8d 75be e5dc a2bd
00000110: 2267 263e 7bfd 32bd b990 f2bc c127 0b3e
00000120: 5bed a6bd d793 8c3d ead2 ca3c 7a1e cf3d
00000130: 71f2 773d 6175 c93c 3fc9 d3bd 10d1 2b3e
00000140: 6180 b3bc 2aec 27bd 802f 6dbd 47c0 3b3e
00000150: 9085 35bd 93f0 093e c2be aebc 81a8 a6bc
00000160: fd26 e6bd a8e8 4dbd 1147 6dbc 4b24 a83d
00000170: 85af 45bc dc3e c7bb 7373 9e3d 167c b93c
00000180: 7218 a1bd d209 1dbd 3f9a 99bd 8881 163e
00000190: 6102 febd 295a 333e ac8c b7bd b0d7 b73c
000001a0: 57f7 cfbb c34b d13c 6b31 3e3d 9800 f1bc
000001b0: 81a6 2c3e fabd 503d 3a10 e43c 8fe0 1bbe
000001c0: f452 cbbd fb54 233e 9001 5e3e 3445 433d
000001d0: ef84 063e d450 8ebd c176 2dbd 51cf 8d3d
000001e0: 5d2d cf3c 4cdd 8ebd 205a 2c3b 1ddd b03b
000001f0: 2616 d03d 792c c9bb 84ad 683d 9c87 3cbe
00000200: 908a 323d 0f8b b93d ce68 153e 644d a5bd
00000210: 3ec0 c63d 9453 abbd 9dd3 703d 807b d13d
00000220: 1e5e 07bd 051a 4f3d 526a bbbd 805d 223e
00000230: 8437 2cbd 0877 ee3c 0b46 d33c 8f18 9a3d
00000240: c399 89bc c0e1 4d35 f507 dbbd 8ebb d73d
00000250: 9ef0 f8bc 95af a43d ac17 b4bd a054 283e
00000260: 676e 08be 7ec6 1abc ecb7 a9bc 2513 473d
00000270: f819 c9bd 6138 0ebe 5351 8f3c 1c64 953d
00000280: dd1e b63d 82fe 14be f9c5 033e 4747 383d
00000290: 4430 86bd 5279 a93d 2f91 063e c487 4dbd
000002a0: 0a98 3d3d 52ca 30bd 213a 6fbd 5abc 493d
000002b0: 3ecc cdbd 9cde 95bd 86cf 4ebd 6792 bebd
000002c0: 56df d0bd cde8 c53d 9d37 21be c6c4 103e
000002d0: a5a5 833d 24e3 adbb 8d1d 05bd a836 5cbc
000002e0: 1ca3 613c 7dd9 efbc 6f9d 2bbd 9860 90bd
000002f0: 0598 893d 248b 86bc fbdf aabd b687 793d
00000300: fd5b 053e a9e5 eb3d f519 89bd 1c95 8cbd
00000310: df9f 683c 9fc6 4f3d 5e20 babd a02c 673d
00000320: 2366 9abd c1a8 ba3b ecf2 283c 921f 48bd
00000330: 1e8e 97bd 8cfa 773d 40f7 883d 2d48 27bb
00000340: 1970 5a3d c0aa 123e af12 f0bd 395a db3d
00000350: 8539 35bd 4b94 483d f917 833c 7395 09bb
00000360: e694 d1bd e7f8 9cbc fff0 f8bc cf40 cf3c
00000370: 6e4e 143d c4ef 203d d30b bd3b 484a 26bc
00000380: aa34 943d 7e9e ab3d e84a b6bb 1725 9b3d
00000390: adb7 91bd 1345 e3bb 583e debd 2d65 28bd
000003a0: 1236 823c f8c4 d4bd 8c4d 913d 4d5e 5abd
000003b0: f8b6 a3bd b87b c93d d77d 903d ad7b 4ebc
000003c0: 7561 7f3d d3f5 9b3d be80 d83d 0e7e 1f3e
000003d0: c7b6 873d 86b7 81bd 41a4 c2bc 8737 573d
000003e0: cf97 24bd 87c3 f03d 0a1b 123e 769e 553d
000003f0: ab28 1b3c d77d d13c 4e1b 023e 47c1 c03d
0.032179534 0.06294766 0.22177668 0.088077694 -0.015486242 -0.010416219 0.22054377 0.011227744
-0.098591596 -0.030994859 -0.09403084 -0.012516584 0.012423688 -0.044238195 -0.08594707 -0.13616751
-0.119580925 -0.073252976 -0.063016035 -0.1639841 -0.10889698 -0.09506319 0.0032820757 -0.06782059
0.054368265 0.02721514 -0.069803245 -0.036886588 0.0922059 0.045666285 -0.05205556 -0.04794341
0.18915905 -0.1416382 -0.03804991 -0.096644245 -0.008436547 -0.0130564235 -0.035500403 0.022759996
0.02069967 0.11268878 -0.037311465 -0.00026515147 -0.07415307 0.08549927 -0.12018625 -0.042665426
-0.07116211 -0.11464933 -0.1025342 0.03722015 0.054831408 0.022774743 0.009659069 -0.049317297
-0.09768618 0.11389139 0.03084678 -0.044310264 -0.07857881 -0.21188106 -0.06903542 -0.098112814
-0.05099936 -0.092860274 -0.23979707 -0.079522885 0.1625028 -0.04369877 -0.029610025 0.13589384
-0.08150741 0.06864136 0.024758775 0.10113235 0.060533945 0.024592103 -0.10341119 0.1677897
-0.021911802 -0.040996708 -0.057906628 0.18335067 -0.04431683 0.13470678 -0.021331195 -0.02034402
-0.11237905 -0.050270706 -0.014482276 0.08210047 -0.012065773 -0.0060804915 0.07736864 0.022642177
-0.07865991 -0.038339444 -0.07500123 0.1469785 -0.124027975 0.17514862 -0.08962378 0.022441715
-0.006346624 0.025548821 0.046433847 -0.029419228 0.16860391 0.050962426 0.027839769 -0.15222381
-0.099279314 0.15950386 0.21680284 0.04767342 0.13136648 -0.069490105 -0.04234958 0.06924308
0.025290186 -0.06975803 0.0026298836 0.0053974525 0.101604745 -0.0061393348 0.056806102 -0.18411106
0.043589175 0.090597264 0.14590761 -0.08071402 0.09704636 -0.08365551 0.05879556 0.10228634
-0.03304874 0.050561924 -0.09151138 0.1585598 -0.04204513 0.029109493 0.025790235 0.075242154
-0.016796952 7.669696e-07 -0.10694877 0.1053382 -0.030388173 0.08041302 -0.087935776 0.16438532
-0.13323365 -0.009446738 -0.020717584 0.048602242 -0.09819406 -0.13888694 0.017494833 0.07294485
0.088926055 -0.14550212 0.1286849 0.04498985 -0.06552175 0.08275093 0.1314132 -0.050178304
0.046287574 -0.043161698 -0.058405045 0.04925189 -0.10048722 -0.0731785 -0.05049088 -0.09305268
-0.10198848 0.09663544 -0.15743871 0.14137563 0.064280786 -0.0053066183 -0.032498885 -0.013440765
0.013771798 -0.029278511 -0.041898187 -0.07049674 0.067184485 -0.01642377 -0.08343502 0.06092044
0.13023372 0.115184136 -0.06694404 -0.06864378 0.0141982725 0.05072653 -0.09088205 0.056439042
-0.07539012 0.0056963866 0.010311823 -0.048858233 -0.074001536 0.060541674 0.06687784 -0.0025525198
0.05332956 0.14322948 -0.117223136 0.10710568 -0.044244308 0.04896955 0.016002642 -0.002099362
-0.10233478 -0.019161655 -0.030388353 0.025299458 0.03620761 0.03929116 0.005769232 -0.010149546
0.072366074 0.08379839 -0.0055631287 0.07575434 -0.071151115 -0.0069357245 -0.10851735 -0.041112114
0.015894923 -0.10389131 0.07094869 -0.05331259 -0.07993883 0.098380506 0.07055252 -0.012602729
0.0623488 0.076152466 0.105714306 0.1557543 0.06626659 -0.063338324 -0.023759963 0.05254319
-0.04018384 0.11756044 0.14268127 0.052153073 0.009470145 0.0255727 0.12705728 0.09411865

conv3.0.bias f4 [32]
00000000: f175 b4bb 83d5 a8bc 83ea 843c 1a12 1a3d
00000010: 487d 893c 0c20 43bc a63a a53c 7c21 f53b
00000020: 7a05 cebc ab27 69bc d438 033c 75c0 693c
00000030: 16bf 883c 482c 013d 7b2b acbc c3d9 dcbc
00000040: 3039 92bc f75b b4bc 14fc aa3c 38df 8e3b
00000050: 9f7f 56bb c3e5 7ebc 0af9 833c eac7 6abc
00000060: ef1f d5bc a730 1f3c 2c0e d3bb 7e70 bcbc
00000070: a0ee a1bc 8b58 283c 015d d5bc 52f6 4a3c
-0.005507224 -0.020609623 0.016225105 0.03761492 0.016783372 -0.011909496 0.020169567 0.0074807983
-0.025149096 -0.014230649 0.008009154 0.014267077 0.01669268 0.03153637 -0.021016827 -0.026959306
-0.017849535 -0.022016509 0.020872153 0.004360106 -0.0032729877 -0.015557709 0.016109962 -0.01432989
-0.026016204 0.0097161895 -0.0064408984 -0.02300286 -0.019767106 0.010275017 -0.026045324 0.012387829

conv4.0.weight f4 [64, 32, 3, 3]
00000000: 351a 1b3d c2cc 573d d3fc 94bd 199e 963d
00000010: f34a 53bc 61cb 87bd 6e93 11bc ec48 84bd
00000020: 5ba5 a03d 7a7f 7cbc 3a90 bebd 54ed 64bb
00000030: 6335 a6bb 054f bb3c 7436 8b3d 6adb 6cbc
00000040: a898 a4bd ab72 943c f57c 66bc e6e1 003d
00000050: f57c 9dbc 21a2 423d df38 b43d d411 973d
00000060: de6b bebb e403 b0bc 22f1 003d 4add 3c3e
00000070: 560d 1ebd 8b8f 053d 256e cc3c a402 ec3c
00000080: c279 233d 4dbd d6bc 0308 e53d 4b7d 2f3d
00000090: 9974 c03d e1dd 87bd c01e a83d 92a3 30bd
000000a0: 9a20 6dbc 89de 23bd 12d9 0f3e f840 9c3d
000000b0: 9242 27bd 55d1 02bc a662 903c 7d1e 393d
000000c0: af9c a9bd a18b dc3d b5be 0dbb feee c03d
000000d0: b273 0cbe 76fb 0abd e48e 603d 3678 413e
000000e0: 7d2a cebc 2108 8f3c ca90 b13c e055 b7bb
000000f0: e393 90bc 29f6 303e fbe1 60bd 8b0d 083d
00000100: b00e be3b 8d95 08bd ac19 20be d73e 4e3d
00000110: fc84 69bb ed47 803d 5228 353d fe5d 14bd
00000120: f13d 503c 0d8f 573d f4ba 0fbe ef0c 96bb
00000130: 51f7 6c3c 215e 9c3d ee55 493a 862f 993a
00000140: 7d64 f8bc e807 16bc faa0 17bd dcd6 773d
00000150: 4bb9 84bc 9a33 1ebc 897d a03d 0a1f f53c
00000160: 5ae2 983d 173e 9b3d a08b aebd 1b70 65bd
00000170: 288a 01be b39c 283c fb66 93bd 82b5 98bd
00000180: 01e6 0fbd 8851 e3bc e4c7 853d fc0d 80bc
00000190: 080a a13d 4f57 74bc 39e4 0b3d a653 003e
000001a0: e0b3 b2bd ba2d 25be a97b a93c 9ed5 cab9
000001b0: 171e 09bd 01ec d23c 56e0 7c3d 6ede b8bd
000001c0: dc21 9d3c 2e85 dc3d 3ee8 4dbd 4601 8e3d
000001d0: 41aa 853d 8312 6ebd f215 54bc 2347 0a3e
000001e0: 167a 90bd 67af e9bb 91e9 883c ccf7 07bb
000001f0: c9b5 6bbd e953 a13d de32 3b3d eaf3 f2bc
00000200: 1dda 14bb f47c 26be 14d4 f5bc edb9 a7bc
00000210: 3da6 79bd e16d 04bb 6336 9cbb 2e5f 8e3d
00000220: 3187 ad3d d227 45bc 8528 2d3b 7ab7 d73d
00000230: d409 cb3c c74f 5dbd 064c f93b 35fe 7abb
00000240: a9b4 c13b 2c24 cfbc 8f52 9b3d cf8f 753d
00000250: 84a0 213d 938a ae3c 3e4c 19bc abdb abbb
00000260: f8c5 7f3d a2b2 37bd 61b6 d03c 92a3 623c
00000270: d658 eebd db6f ebbb 975c 913d cde7 7abb
00000280: b487 51bd 95e2 70bd 8060 16bd 5552 9d3d
00000290: b406 35bd 1af2 0cbd 3169 fb3c c761 083d
000002a0: 801e 5bbd daa5 bcbc f6d4 2a3d 6d0e 703d
000002b0: 90d2 023d 7f13 0e3d a970 1b3e 3c32 03be
000002c0: 5a5d 89b9 8b43 803d 12e4 08be ee11 a83d
000002d0: 98d6 453d bcdb 5e3b c48c 023d 3166 21bd
000002e0: c67d 523e e685 abbc 6909 3fbd 86cd a3bc
000002f0: 663a f0bc 467e b93c f0a4 9fbc fca7 a43d
00000300: 072e 6d3d b734 9c3d cc79 b0bd ba40 04bc
00000310: 2003 a8bd facb 9a3d 3ce5 c2bc 7727 c03d
00000320: 271e 2a3e 385e 54bb e2bb a9bd fd34 91bd
00000330: fded dfbd 8016 0b3d fa6d 033d 5db4 053d
00000340: abd0 783b 728e 98bc 9799 67bb d96e c8bc
00000350: 39f5 13bd 857a d1bd 2346 743d cb7d 4b3b
00000360: 73b7 b4bd 8b40 6ebd a251 e9bc 0f5f dd3c
00000370: 384a 9bbd 53be cdbc b67b 15bd 6854 993d
00000380: f002 183e 2b38 06bd c6f6 683d dff5 82bd
00000390: 462d 8dbd b133 b83d 783d 5ebb f189 b6bd
000003a0: a7ae 98bd 1213 89bc 4efd 893d 67f7 38bd
000003b0: 7739 87bd c897 83bd ded7 033d 16d1 823d
000003c0: 8039 e33c 0239 27bd 71e8 f43c 33dd a63c
000003d0: 4696 5cbd 5d31 943c ea15 bd3c 7d70 d7bd
000003e0: 23fa 3abd 08e0 613d 8ecd 9f3d f721 fa3b
000003f0: 6740 e43c f93f eabd 83e6 813d 3976 e0bd
0.03786679 0.052685507 -0.07274785 0.073543735 -0.012896287 -0.06630588 -0.008885248 -0.06459221
0.07844039 -0.015411252 -0.09304853 -0.0034931498 -0.005072282 0.022864828 0.067974955 -0.014456609
-0.08036929 0.018121084 -0.014067878 0.031465434 -0.019224623 0.0475179 0.0879991 0.07376447
-0.0058111986 -0.02148623 0.031479962 0.1844379 -0.038586937 0.032607596 0.024954865 0.028809853
0.03991104 -0.026213313 0.11183169 0.042844098 0.09397239 -0.06634117 0.0820899 -0.043124743
-0.014473105 -0.040007148 0.1404765 0.07629579 -0.04083497 -0.007984479 0.017625164 0.04519509
-0.08281838 0.107688196 -0.0021628563 0.09420584 -0.1371601 -0.033931218 0.05482377 0.18893513
-0.025166744 0.01745993 0.021675486 -0.005594954 -0.017648643 0.17281403 -0.05490301 0.03321604
0.0058000907 -0.033345748 -0.15634793 0.050352897 -0.0035632243 0.06263719 0.044227906 -0.03622245
0.0127100805 0.05262666 -0.1403616 -0.0045791785 0.014463262 0.07635141 0.0007680346 0.0011687137
-0.030321354 -0.009157158 -0.037018754 0.06050764 -0.016201636 -0.009655857 0.07836444 0.029922027
0.07465048 0.07580202 -0.08522725 -0.056015115 -0.12650359 0.010291266 -0.07197376 -0.07456495
-0.03513146 -0.027748838 0.06532267 -0.015631668 0.078632414 -0.014913394 0.034153197 0.1253191
-0.08725715 -0.16130725 0.020688849 -0.000386876 -0.03347596 0.025747301 0.06173738 -0.090268
0.019181184 0.107675895 -0.05027031 0.06933837 0.06526614 -0.058123123 -0.012944685 0.13503699
-0.07054536 -0.0071315053 0.016712936 -0.0020747064 -0.05754641 0.07877333 0.045702808 -0.029657323
-0.0022713013 -0.16258603 -0.030008353 -0.020474399 -0.060949553 -0.0020207094 -0.0047672256 0.06951748
0.08473051 -0.01203342 0.0026421857 0.10533042 0.02478496 -0.05403116 0.0076079397 -0.0038298492
0.005911429 -0.025285803 0.07584106 0.0599516 0.03945972 0.021306312 -0.009356556 -0.0052446923
0.062444657 -0.044848092 0.02547759 0.0138329435 -0.11638038 -0.007184965 0.07097738 -0.0038285137
-0.051154807 -0.058809835 -0.036713123 0.07681719 -0.044195846 -0.034410574 0.030689808 0.033296373
-0.053495884 -0.023028303 0.041707 0.058607507 0.03193909 0.03468656 0.15179695 -0.12812132
-0.0002620023 0.06262883 -0.13368252 0.08206545 0.048300356 0.0034005484 0.031872526 -0.039404098
0.20555791 -0.020937871 -0.046639834 -0.019995462 -0.029324722 0.02264322 -0.019487828 0.08039853
0.057905223 0.07627242 -0.08616981 -0.008072073 -0.08203721 0.07558437 -0.023790948 0.09382527
0.16613065 -0.0032404792 -0.08287789 -0.07090185 -0.109340645 0.033957005 0.032087304 0.03264271
0.0037966173 -0.01862261 -0.003533935 -0.024466919 -0.036122534 -0.10228447 0.0596372 0.003105032
-0.08824053 -0.05816702 -0.028481308 0.027022867 -0.075825155 -0.025115168 -0.036494933 0.07486802
0.1484487 -0.03276841 0.056875966 -0.063945524 -0.06893401 0.08994234 -0.003391115 -0.08913029
-0.07455187 -0.016732726 0.06737767 -0.045157816 -0.066027574 -0.06425434 0.03218829 0.06387536
0.02773738 -0.04082585 0.029895993 0.020369148 -0.05385425 0.018089944 0.023081739 -0.10519502
-0.045648705 0.055145293 0.07802878 0.0076334435 0.02786274 -0.11437983 0.06342795 -0.10960049

conv4.0.bias f4 [64]
00000000: ac5b 2e3c 0265 873c fe41 74bc ddea 41bc
00000010: db40 20bc 0cb1 9d3c 051a 62bc 2d44 cf3c
00000020: 98f4 c4bb b582 5bbc 594c 9d3c 92f1 be3c
00000030: f5f1 66bb 034c 0f3c b14b 9c3c 56ce e23b
00000040: 6bd6 6e3c a85d 7cb8 0025 df3b 0232 2ebc
00000050: fd82 93ba 0eda 6bbc 843a a9bc f6a0 0c3d
00000060: d184 e23c 9185 0d3b 357b 44bc 492f dd3a
00000070: ad5e 2b3c 18d6 a43b 526b 2d3c 0000 0000
00000080: 0780 5c3c aba1 ab3c e648 8f3c 5c92 b33c
00000090: 364c d1bc d6a3 213c 9298 bf3c 16ec 243a
000000a0: 4d71 c23c 3c3a a53c 5666 83ba 4b24 9cbc
000000b0: 1ce9 7b3b 7e90 babb 8f66 6bbc 487a 5abc
000000c0: a545 693c 6fb4 343c 5557 cd3c c992 a23c
000000d0: 31a9 ea3b 5142 663c ba73 a43b 9193 9d3c
000000e0: 13fd 103c ccd4 86bc d41a 713c 2eb6 2e3c
000000f0: 8207 363c 2f30 913c f4d7 7a3c 097e 1dbc
0.0106419735 0.016527656 -0.014908312 -0.011835781 -0.009781088 0.019249462 -0.013800149 0.025301063
-0.006010603 -0.013397862 0.019201444 0.02330855 -0.0035239432 0.00874615 0.019079061 0.00692157
0.014577488 -6.0168706e-05 0.0068098307 -0.01063204 -0.0011254248 -0.01439525 -0.020657785 0.03433319
0.027651222 0.0021594504 -0.0119922655 0.0016875054 0.010459584 0.005030405 0.010584669 0.0
0.0134582585 0.020951113 0.017490815 0.021920376 -0.025549036 0.009865722 0.02338818 0.0006291283
0.023735667 0.02016937 -0.0010025005 -0.019060275 0.0038438505 -0.0056934943 -0.014367714 -0.013334818
0.014237796 0.011029347 0.025066057 0.019845383 0.0071612825 0.014053897 0.0050186785 0.019235404
0.0088494 -0.016458891 0.014715869 0.010663552 0.011110188 0.017723171 0.015310276 -0.009612569

conv5.0.weight f4 [64, 64, 5, 5]
00000000: 8a9f f7bc 4c82 99bb 3186 853c c9fb 7b3c
00000010: 86d1 9fbc 42a4 7b3c 285f 24bd 2130 6b3d
00000020: edd5 673c f6de fc3c 82ac b83c c7cc c3bb
00000030: cc3f 21bd 365d 2d3b f07f 0a3d 0274 663d
00000040: 071a 0e3c 6436 093d d393 f73c e558 65bc
00000050: 56ce 0fbc 1d9c 103c 0efe db3b ef8d 2b3d
00000060: 4e71 143d d877 8ebd 5d53 c3bc 9102 0b3d
00000070: c093 dc3c 934d 1d3d b16d 023d 38e4 ba3b
00000080: 0905 0ebc bb0d c23c 2ee2 83bc 9a6e fbba
00000090: 25ca f1bb 6cec ecbc a3af 3dbb 782d 4abb
000000a0: 5830 1a3d b628 65bb bd8d 4dbd c554 92bb
000000b0: d2ef 72bb da2f 35bd 8864 d23c 0de7 98bc
000000c0: 919b b83b 1659 56bd 2bdc 2cbd b063 7bbb
000000d0: 0351 213d 044c e33c 2102 b4bd 44e3 253d
000000e0: e775 0d3b 0611 423d 3006 733d dcdb 64bd
000000f0: 84de df3b 94de 98ba 0af5 533d ee72 f0bc
00000100: 691b 09bb 3a74 39bd fe41 0a3d 6ce9 febc
00000110: 11a9 613d 5792 c73c 7f88 1bbc c290 e8bb
00000120: ccd6 04bd b201 fc3c da20 a0bd 11c7 8bbd
00000130: e5ad cb3c 497d 5cbd 17d2 0639 0a93 5a3d
00000140: 9bd4 e4bb cd7f 93bc 36c4 113d a858 e83c
00000150: 3d68 573c ecab 543c cba9 d1bc b808 403c
00000160: 02cc 6f3d 497f 793d b8d0 8cbc 4374 0c3d
00000170: fd32 32bc 0fa7 5b3c 24b1 b53b b375 41bd
00000180: 9c77 6a3c 42ed 0e3d 708a 793d a707 c8bc
00000190: 7135 f3bc 9c58 db3b 9d70 8abd 27f8 09bd
000001a0: c155 19bd 3812 c23c 92e5 2d3d d04c 993d
000001b0: 31ea 0e3c 426e a43a 57d6 b93c 2dc1 773d
000001c0: 1ac4 e43d 02a2 d33c 8d95 033d f32a d0bc
000001d0: 0ac0 333d a4ae 7b3c c6c8 6e3c 7d3f 9f3c
000001e0: d60d b2bd 9e3d e2ba b90c a53c 5a89 efbc
000001f0: 54e8 473c 9a6d 083d 57d5 893d f7a8 7b3d
00000200: 38ca 4e3d 231c 10bd 5e94 193d ecfc 9f3d
00000210: 4e4f 3abd d66b 2e3d d3f4 3dbd b37c 0cbd
00000220: 2863 70bc 3853 1ebd a273 92bd 71ec cb3c
00000230: fcd6 273d e3b6 d53d bb38 d3bd 879f ecba
00000240: f0ac 2ebc 91cf a43c b7b5 2fbd ad19 4fbc
00000250: 9e98 fa3b 6894 d8bc 0047 4f3c 29c1 b23c
00000260: a972 c83c c6aa e23b 8640 fe3c dba3 493d
00000270: b7e3 a2bb 5bcc babc c830 873d e2a6 863c
00000280: 41d9 8c3d db4c d8bc 08b0 743d 8c0c 18bb
00000290: e127 c5ba 0f20 81bc d21e c23c da27 63bd
000002a0: fa26 a1bc 66dd ee3c c8c4 9f3b 52a8 9f3b
000002b0: 3530 ecbc 31c7 33bc e97b 78bc c8a8 563c
000002c0: e4b2 7f3d 46d6 14bd 14ef 14bc 76c5 a8bd
000002d0: a6e3 6bbd 89f3 99bc fc5c bdba c292 2cbb
000002e0: cb88 fbbc b7bf b8bc 4166 e93b 9c07 cdbd
000002f0: 2870 aa3c 14d6 55bd ad15 a13c 4b42 f1bc
00000300: 8c46 a9bc 136e f2bd d491 273d ead3 f5bc
00000310: 9064 21bd 6c16 94bb cd7e a7bb b128 12bc
00000320: da06 77bc ed24 03bc c86d 66bc 12a4 35bc
00000330: 5eb2 5f3b 3f67 08bb d993 73bc 3a41 493d
00000340: 0c2f a03c f24a 73bc 4c90 c1bb d706 e9bc
00000350: 27d8 0a3d 87ed 453d 73f1 e93b e17b c73d
00000360: 0d2f b1bb 9948 8cbc 7382 92bc c52b c43c
00000370: 12b0 a33d 72a9 a43c b44b a7bc cefe 4cbd
00000380: 38ad 7f3d 67d7 91bc 0d67 a7bc 3d57 27bc
00000390: e9ae 9bbc 3853 ccba 77fe 623d e74a babc
000003a0: 270b dd3c fce9 b03b f117 a0bc 5966 c2bc
000003b0: c9a6 4f3b 55de cc3b e15d e43c a070 e93c
000003c0: 2d39 9fbc ab63 af3c 78dc 9bbd 2d42 b5bc
000003d0: dc42 92bc 38b3 1dbc 5378 483d 82bd 283c
000003e0: 1d10 3bbc a428 5abc 544e 873d 815b 083d
000003f0: a2eb 94bd b002 143d 64d7 21bd b194 f33c
-0.030227441 -0.004684722 0.016299339 0.0153798545 -0.019509088 0.015358986 -0.04012981 0.057418946
0.014150125 0.030868035 0.022543196 -0.005975339 -0.039367482 0.0026453263 0.033813417 0.056262977
0.008673198 0.033499137 0.030221855 -0.013998245 -0.008777222 0.008826283 0.0067136353 0.041883405
0.03624087 -0.06956452 -0.023843462 0.033937994 0.026925921 0.03840406 0.03184289 0.0057034753
-0.008668193 0.023688188 -0.016099062 -0.0019182742 -0.007378834 -0.028921328 -0.00289438 -0.0030849855
0.03764376 -0.0034966893 -0.050184 -0.0044656717 -0.0037069214 -0.044235088 0.025682703 -0.018664861
0.0056337793 -0.052331053 -0.042202156 -0.003835898 0.0393839 0.027746208 -0.087894686 0.04049994
0.0021585168 0.047379516 0.059332073 -0.055873737 0.006831946 -0.0011663013 0.05174736 -0.029351678
-0.0020920879 -0.045276858 0.03375434 -0.031117164 0.055092875 0.024361772 -0.009492992 -0.0070973346
-0.03243141 0.030762527 -0.07818766 -0.06825078 0.024863193 -0.05383042 0.000128575 0.053362884
-0.0069833524 -0.018005276 0.035587512 0.028362587 0.013147411 0.0129804425 -0.025593659 0.011720829
0.058544166 0.060912404 -0.017189369 0.034290563 -0.010876414 0.013406529 0.0055447984 -0.047231387
0.014310744 0.034894235 0.06092304 -0.024417711 -0.029688569 0.0066939127 -0.067597605 -0.033683922
-0.037435297 0.023690328 0.042455263 0.07485354 0.008722828 0.0012545066 0.022685213 0.06048696
0.11170216 0.025834087 0.032125045 -0.025411105 0.043884315 0.015361462 0.014574235 0.019439453
-0.08694045 -0.0017260795 0.020147668 -0.029240299 0.012201387 0.03330765 0.067301445 0.061440434
0.05048582 -0.035183083 0.03749501 0.07811913 -0.045485787 0.04258331 -0.04637606 -0.03429861
-0.014672078 -0.038653582 -0.071509615 0.024893017 0.04097651 0.104352735 -0.10313555 -0.0018052914
-0.010661349 0.020118507 -0.042897906 -0.012640399 0.007647588 -0.026437953 0.012651205 0.021820622
0.024468737 0.0069173304 0.031036627 0.04922853 -0.0049709934 -0.022802522 0.06601101 0.016436998
0.068773754 -0.026403835 0.05973819 -0.0023200838 -0.0015041792 -0.015762357 0.023696337 -0.055457927
-0.019671906 0.029158305 0.004875753 0.0048723603 -0.02883158 -0.010972784 -0.015166261 0.013101764
0.062426463 -0.03633716 -0.009090204 -0.08240788 -0.05759015 -0.018792884 -0.0014447267 -0.0026332592
-0.030704876 -0.022552354 0.0071227853 -0.10011217 0.020805433 -0.052206114 0.019663656 -0.029450556
-0.020663522 -0.11837401 0.040910557 -0.030008275 -0.039402544 -0.0045192745 -0.0051115514 -0.008920834
-0.015077317 -0.008004409 -0.01406426 -0.011086481 0.0034133415 -0.0020813493 -0.014866793 0.04913447
0.019553684 -0.014849411 -0.005907094 -0.028445644 0.033897545 0.048322227 0.0071393787 0.09740425
-0.00540722 -0.017124461 -0.017884469 0.023946652 0.07992567 0.02010033 -0.02042184 -0.05004769
0.062421054 -0.017802907 -0.02043488 -0.01021367 -0.019004302 -0.0015588766 0.055418458 -0.022740794
0.026982857 0.005398987 -0.019542666 -0.023730444 0.0031685105 0.00625209 0.027876796 0.028496087
-0.019436443 0.02140983 -0.076104105 -0.022126282 -0.017854147 -0.009625249 0.048942875 0.010299088
-0.011417416 -0.013315354 0.06606737 0.03329039 -0.07271506 0.036135375 -0.039512053 0.029733988

conv5.0.bias f4 [64]
00000000: 844a 7cbc 7975 33bc 0091 7aba 70fb 6c3c
00000010: be78 64bc bf66 6a3c 00b1 6dbc d3a7 d33b
00000020: f4ed 68bc cad0 733c 1917 75bc a990 5e3c
00000030: b344 1bbc e3d2 5d3c c627 6fbc 9ac9 593c
00000040: cabf 73bc b73f 61bc f18d 20bc 7290 f63b
00000050: a82b 1dbc 19e3 50bc 3aa7 5f3c 3b67 67bc
00000060: 6ab9 5cbc a060 5fbc 3b54 7f3c 2646 4abc
00000070: 21dd 143c a321 ef3b 3fcd 4d3c fcf0 16bc
00000080: 2c39 383c c923 5bbc 751a 4fbc 2bbc 2fbc
00000090: 4223 5ebb 8cd5 7fbc 9050 6bbc c2b9 4e3c
000000a0: 267e 6e3c 560e 6ebc 0a63 7f3c 5740 413c
000000b0: 5776 36bc f547 86bc d04a 4ebc 2977 523c
000000c0: 87b9 4c3c cbc2 6f3c 4d96 46bc deec 52bc
000000d0: 47af 413c 4213 76bc ec27 3e3c a964 8abc
000000e0: 0317 adbc e5d6 37bc 1503 4d3c 7b64 9a3c
000000f0: 07be 66bc ea49 843c b8be 213c 6313 783c
-0.015398625 -0.010953301 -0.000955835 0.014464244 -0.013944803 0.014306723 -0.014507532 0.006459215
-0.014216889 0.014881322 -0.01495912 0.013584294 -0.009476828 0.013539049 -0.014596885 0.013292694
-0.014877269 -0.013748101 -0.0097994665 0.0075245434 -0.009592928 -0.012749457 0.01365071 -0.014123733
-0.0134719405 -0.013633877 0.015584047 -0.012345826 0.009085924 0.007297711 0.0125611415 -0.009212729
0.0112441 -0.013375231 -0.012640585 -0.010726015 -0.0033895527 -0.015614878 -0.014362469 0.01261753
0.014556443 -0.014529785 0.015587578 0.011795125 -0.011136613 -0.016391734 -0.012591079 0.012845793
0.012495405 0.014633845 -0.012120795 -0.012873856 0.0118215745 -0.01501924 0.011606198 -0.016893702
-0.021129137 -0.011220668 0.012512942 0.018846741 -0.014083392 0.016148526 0.009872131 0.015141341

layer1.weight f4 [2, 64]
00000000: 5ca0 04bc a1a1 8fbc b037 923b f074 c93c
00000010: 1856 b6bc b4f8 123c a52d c8bc ce19 893b
00000020: a1e2 b2bc bd83 b03c 7493 f7bc eb39 d33c
00000030: 73c4 eabb 0403 893c 774d dfbc bd55 443c
00000040: b1e8 e7bc 8cdf d0bc 66a9 7bbc 78c8 1a3b
00000050: a9dd 9fbc 87b7 d3bc c585 143c e5c2 e5bb
00000060: c752 f8bc 66c0 bfbc 9bd9 a33b afce a5ba
00000070: 3e82 973c 9c93 383c 554c cc3c 7b81 f6bb
00000080: 4e37 cb3b 4285 12bd 1190 c0bc adca 41bc
00000090: 0cd4 ff37 d4c5 e7bc 723b 0bbd 5bb9 a93c
000000a0: 3330 d43c dc3d a9bc f57d e13c 8647 3a3c
000000b0: 7ab4 42bc d819 cabc 8ca5 06bd cd66 003d
000000c0: 0ae4 013d a739 193d 5300 e2bc ac08 90bc
000000d0: 6a9a 9c3c f02e c5bc 3334 f33c 5aa0 70bc
000000e0: 630a e3bb d41a 9cbc 1797 1dba ef89 473c
000000f0: 77f1 39bd 1652 553c df99 993c 4705 2f3c
00000100: 2f97 db3c 5cd6 2d3c d675 92ba e60f 47bc
00000110: 02db a03c 24e1 67bc 8159 d23c eafc 233b
00000120: 5cf3 c73c ff02 dcbc 4932 173d d759 02bd
00000130: 2f9f 723c 792c 8b3b 9b66 253c 4d96 03bd
00000140: 9d0a 133c 5fd6 113c e8c8 5e3c c986 09bc
00000150: d912 4f3b 7fac e53c 9a30 07bd c035 18bb
00000160: 16a0 ed3c 87f9 833c 7f03 20bd d8ee 153d
00000170: 632e 173a 39de 48bb 3a66 7cbc 2917 153c
00000180: 344c 97bb 3856 a43c 488a 843c 740c 353b
00000190: 092b 4b3c eea4 d93b f394 ce3c 4036 02bd
000001a0: b750 40bc 493a dd3c 3481 8abc 3bef 69bc
000001b0: 0710 983c a676 913c 8dc1 133d e4ab 5bbc
000001c0: b7d8 3bbb 67bd a1bc 308b 943c a3c1 b93c
000001d0: 4ee6 8ebc 9028 cf3c 461f 91bc c809 853c
000001e0: bfac b43c b5ee a73c 6213 e8bc 5b9e f8bc
000001f0: 05dd ee3c 4774 053b 9320 ebbb 8a16 cdbb
-0.008094873 -0.017533125 0.004462205 0.024591893 -0.02225785 0.008970428 -0.024435828 0.0041839844
-0.02183658 0.021547193 -0.030221678 0.025784453 -0.007164532 0.01672507 -0.027258618 0.011983332
-0.028309198 -0.02549722 -0.015360212 0.0023618024 -0.019514875 -0.025844349 0.009065096 -0.0070117586
-0.030312909 -0.023407172 0.005000306 -0.0012650097 0.018494722 0.011265662 0.024938742 -0.0075227595
0.006201661 -0.035771616 -0.023506196 -0.011828107 3.049711e-05 -0.028292574 -0.03399224 0.020718267
0.02590189 -0.02065938 0.027525881 0.011369592 -0.011883849 -0.024670526 -0.03287272 0.03134804
0.031711616 0.037408497 -0.027588045 -0.01758226 0.0191166 -0.024070233 0.029687976 -0.014686668
-0.0069287284 -0.019055761 -0.0006011589 0.012178882 -0.045396294 0.013020059 0.01875013 0.010682411
0.026805488 0.010610189 -0.0011174034 -0.012149787 0.019635681 -0.014152799 0.025677444 0.0025022575
0.024408035 -0.026856897 0.03691319 -0.03182396 0.01480846 0.004247245 0.010095264 -0.03212576
0.008974698 0.008901208 0.0135977045 -0.008393952 0.0031596927 0.028036354 -0.033005334 -0.0023225397
0.029006999 0.016110195 -0.039065834 0.036604732 0.0005767105 -0.0030650033 -0.015405232 0.00909976
-0.0046172384 0.020060644 0.016179219 0.002762583 0.012400397 0.0066419756 0.025217509 -0.031790018
-0.011737994 0.027005332 -0.016907312 -0.014278228 0.01856233 0.017756771 0.036073256 -0.013407681
-0.0028663108 -0.019743634 0.018132776 0.022675341 -0.017443802 0.025287896 -0.017715108 0.016240016
0.022055028 0.020499567 -0.028329555 -0.030348947 0.029158125 0.0020363496 -0.007175514 -0.0062587904

layer1.bias f4 [2]
00000000: e116 2f3c da16 2fbc
0.010686607 -0.010686601
